p2/models/model_starter_net.pth (torch_old, 279697 bytes, 22 tensors)

layers.0.weight f4 [5, 3, 1, 1]
-0.54153496 -0.21371657 -0.2052902 0.07964873 -0.45560372 -0.2937522 0.12947118 0.43049777
0.55983496 -0.22079027 -0.4801588 0.42985225 -0.12288135 -0.29066777 -0.16604644
00000000: 09a2 0abf 84d8 5abe 9837 52be e01e a33d
00000010: e444 e9be b066 96be 1894 043e 346a dc3e
00000020: 5851 0f3f d816 62be 60d7 f5be 9815 dc3e
00000030: 38a9 fbbd 68d2 94be 1408 2abe

layers.0.bias f4 [5]
0.19724435 -0.54087454 0.31137937 -0.47818157 -0.33498102
00000000: 6cfa 493e c176 0abf 1e6d 9f3e 37d4 f4be
00000010: a282 abbe

layers.2.weight f4 [10, 5, 1, 1]
-0.16260627 0.04785621 -0.25103462 0.17501062 -0.44009644 -0.13401943 -0.041032016 -0.17962229
0.27178496 -0.2876441 0.3134036 -0.40196314 -0.06381452 0.24955726 -0.07308772 -0.33489686
-0.39477903 0.008903146 0.18328631 0.34365284 0.040599704 -0.32401475 0.01126045 0.25144017
-0.055425256 -0.07563546 0.23359579 -0.4095195 -0.011493683 -0.27888417 0.1503855 -0.30591816
0.3988394 0.20150763 0.40737993 0.25787628 -0.06278619 0.011214197 0.21874863 -0.10435316
-0.12457046 -0.22520807 -0.40212 0.38756865 -0.36765265 -0.20499595 0.028783202 0.28974587
-0.27485958 -0.4089891
00000000: 4282 26be e004 443d 9c87 80be fc35 333e
00000010: 5254 e1be 643c 09be 3011 28bd e8ee 37be
00000020: 6627 8b3e 1646 93be 7076 a03e 1dce cdbe
00000030: 30b1 82bd f08b 7f3e 04af 95bd 9a77 abbe
00000040: 7a20 cabe 80de 113c 68af 3b3e 44f3 af3e
00000050: e04b 263d 43e5 a5be c07d 383c c4bc 803e
00000060: 9805 63bd c4e6 9abd bc33 6f3e 8aac d1be
00000070: 0050 3cbc e8c9 8ebe a8fe 193e 4ea1 9cbe
00000080: ae34 cc3e 0458 4e3e 1a94 d03e 5c08 843e
00000090: 0c96 80bd c0bb 373c a4ff 5f3e 1cb7 d5bd
000000a0: cc1e ffbd f29c 66be ace2 cdbe 666f c63e
000000b0: f83c bcbe 75ea 51be c0ca eb3c 9259 943e
000000c0: 65ba 8cbe 0567 d1be

layers.2.bias f4 [10]
-0.24915685 0.3572207 0.3859902 0.39422637 0.04799089 0.1081664 0.36245954 -0.3622837
-0.044847667 0.30599487
00000000: f922 7fbe a2e5 b63e 82a0 c53e 0ad8 c93e
00000010: 1892 443d 5886 dd3d 4c94 b93e 407d b9be
00000020: 30b2 37bd 5cab 9c3e

layers.4.weight f4 [128, 256]
0.00962282 0.056981035 -0.024287231 -0.032914504 -0.011760436 -0.047111727 0.006523378 0.05705729
0.03458032 -0.037860543 0.034886025 -0.0021803826 -0.05451759 -0.060484566 -0.035612203 -0.033059977
0.051455602 -0.031319775 0.0057292655 0.03703449 0.056473732 0.030823648 0.04043609 0.008679181
0.012558356 -0.052392215 -0.023982726 -0.009892546 -0.040981732 0.05326449 -0.03613066 -0.046274588
0.06246105 0.037632287 0.013431095 -0.0074560195 -0.03213641 0.027892187 0.007253848 0.010640219
-0.051499672 -0.02234269 -0.04890719 -0.030573905 -0.0029859692 -0.0021594092 0.03327238 -0.033382393
0.059429243 0.028121896 0.017090902 0.042882383 -0.028691024 -0.025125064 -0.04907421 -0.02586054
0.034224242 0.036789037 -0.00039181113 -0.03941623 0.03608074 0.03680571 0.0105862245 0.0008900389
-0.0013520345 -0.054857798 -0.029289588 0.056866758 -0.0112768635 0.02171453 -0.040069222 0.04534208
-0.04340923 -0.021554783 -0.01912009 -0.019223318 -0.03855589 0.05052469 -0.0017913356 -0.027646236
-0.030154623 -0.013317049 0.024952404 0.021674387 -0.03976088 0.0076590404 0.029705316 -0.04014177
0.034519233 -0.033536904 -0.030133344 -0.026206724 0.020862386 0.05821377 0.0538005 0.0030305386
-0.009160452 -0.0032066032 -0.008249365 0.060536325 0.015594877 0.055126198 -0.032815173 -0.02458585
0.021218337 -0.045113847 0.05302815 -0.02065207 -0.030615248 -0.04047987 0.014899164 0.022770256
-0.030046709 0.013977967 0.012796491 0.025412709 0.026970588 0.013305664 -0.019876957 -0.006425455
-0.031428292 -0.05063816 -0.0237801 -0.031743206 0.02922184 -0.031780347 -0.022431731 -0.022304386
-0.00446938 0.0020318031 -0.046919033 0.019078828 -0.05975555 -0.034210622 0.060934357 -0.0054462925
-0.024076253 0.0054735467 -0.058395185 0.04419014 -0.04084769 -0.0444718 0.022266738 -0.0039281547
0.038880065 0.0076119527 -0.0009897798 0.043445267 -0.032586023 -0.0054664165 -0.03193739 0.052471824
-0.0007485077 -0.015235312 0.028308265 -0.042849846 -0.033615515 0.05161035 0.010348253 0.049228594
0.04161524 0.060935073 0.05330292 -0.033052072 0.0622776 0.0033543631 0.020868622 -0.029579647
0.05984875 0.01541321 -0.02472049 0.048996314 0.053282112 0.03526531 0.026547886 -0.020734683
0.039112747 -0.05805248 -0.02552627 -0.02840297 0.061185494 -0.010735296 -0.018605195 0.013282128
0.056155816 0.010783955 0.02339296 -0.03905447 0.040756814 -0.0063967854 -0.030008726 -0.019520134
0.045487203 0.055470467 -0.015295975 0.006632298 -0.020556055 0.012054659 -0.047103703 0.05435919
0.047760643 -0.038629472 -0.0073943883 0.04211937 -0.0018336326 -0.056899585 -0.018791705 0.046817876
-0.009851366 0.006716512 -0.05159229 -0.04131464 0.04230205 0.029687695 0.022904895 -0.019365415
-0.015427142 -5.3212047e-05 0.031344905 0.03180868 0.0484692 -0.022916071 0.03477384 0.04702604
-0.009642094 0.036092557 0.04513327 0.022705667 -0.019310556 -0.04535976 0.0076219067 -0.035954088
-0.0033623576 -0.040252104 -0.045508057 0.0057986155 -0.002137579 0.00826209 0.054348283 0.025725633
-0.057703927 0.051820755 -0.015496746 0.007920288 -0.012816086 -0.055918947 -0.0011149496 0.055576473
-0.05696387 0.05930298 0.062006064 -0.022673786 -0.00877323 0.050577514 -0.053098895 0.019149825
00000000: 08a9 1d3c f264 693d 04f6 c6bc 5cd1 06bd
00000010: d8ae 40bc 3af8 40bd 10c2 d53b e8b4 693d
00000020: 18a4 0d3d a813 1bbd a6e4 0e3d c0e4 0ebb
00000030: d64d 5fbd aabe 77bd 1ade 11bd e669 07bd
00000040: 1cc3 523d 2a49 00bd 90bc bb3b 7ab1 173d
00000050: 0051 673d e081 fc3c 50a0 253d 2033 0e3c
00000060: 90c1 4d3c 3899 56bd 6c77 c4bc 5814 22bc
00000070: 76dc 27bd de2b 5a3d befd 13bd 6c8a 3dbd
00000080: 28d7 7f3d 5024 1a3d 180e 5c3c a051 f4bb
00000090: 78a1 03bd 287e e43c b0b1 ed3b 5054 2e3c
000000a0: 52f1 52bd 0408 b7bc e852 48bd 2076 fabc
000000b0: 40b0 43bb e084 0dbb 9e48 083d fabb 08bd
000000c0: 146c 733d e45f e63c 3802 8c3c 70a5 2f3d
000000d0: 7009 ebbc 14d3 cdbc 0a02 49bd 7cd9 d3bc
000000e0: b82e 0c3d 1ab0 163d 006c cdb9 ea72 21bd
000000f0: 66c9 133d 96c1 163d d871 2d3c 8051 693a
00000100: c036 b1ba 92b2 60bd b8f0 efbc 1eed 683d
00000110: 98c2 38bc ace2 b13c a01f 24bd 9eb8 393d
00000120: e0cd 31bd a893 b0bc bca1 9cbc 387a 9dbc
00000130: c8ec 1dbd faf2 4e3d 40cb eaba 5c7a e2bc
00000140: d406 f7bc c02f 5abc fc68 cc3c 7c8e b13c
00000150: 4edc 22bd b0f8 fa3b 9058 f33c b26b 24bd
00000160: 0a64 0d3d fe5d 09bd 34da f6bc 7caf d6bc
00000170: 98e7 aa3c 9071 6e3d ea5d 5c3d 009c 463b
00000180: b815 16bc e025 52bb 5828 07bc f0f4 773d
00000190: a881 7f3c 02cc 613d 3469 06bd 4468 c9bc
000001a0: 14d2 ad3c 4cc9 38bd 0c34 593d 882e a9bc
000001b0: d4cc fabc 38ce 25bd a01b 743c b088 ba3c
000001c0: 8424 f6bc d803 653c 60a8 513c 502e d03c
000001d0: 6cf1 dc3c 0000 5a3c 00d5 a2bc a08c d2bb
000001e0: f4ba 00bd f669 4fbd 7cce c2bc 2a05 02bd
000001f0: a462 ef3c 1c2c 02bd c0c2 b7bc b0b7 b6bc
00000200: e073 92bb 0028 053b 2c2e 40bd 344b 9c3c
00000210: 3cc2 74bd 7020 0cbd 4e96 793d d076 b2bb
00000220: 903b c5bc 705b b33b ca2f 6fbd b800 353d
00000230: e84f 27bd 1028 36bd bc68 b63c c0b7 80bb
00000240: b440 1f3d b06d f93b 80bb 81ba aaf3 313d
00000250: ec78 05bd a01f b3bb c8d0 02bd b2ec 563d
00000260: 8037 44ba 889d 79bc bce6 e73c 5283 2fbd
00000270: 6cb0 09bd 6065 533d b88b 293c eca3 493d
00000280: be74 2a3d 0e97 793d 2a54 5a3d 9c61 07bd
00000290: cc16 7f3d e0d4 5b3b acf4 aa3c 0451 f2bc
000002a0: f623 753d b087 7c3c a082 cabc 5cb0 483d
000002b0: 583e 5a3d 5c72 103d f47a d93c c8db a9bc
000002c0: b034 203d 70c8 6dbd 781c d1bc 58ad e8bc
000002d0: a49d 7a3d 18e3 2fbc ec69 98bc 489d 593c
000002e0: a403 663d 30af 303c 98a2 bf3c 94f7 1fbd
000002f0: 9ef0 263d 209c d1bb dcd4 f5bc b0e8 9fbc
00000300: ca50 3a3d 0035 633d f89b 7abc c053 d93b
00000310: 2c65 a8bc e880 453c d0ef 40bd bea7 5e3d
00000320: aaa0 433d f039 1ebd a04c f2bb 5c85 2c3d
00000330: 8056 f0ba 8a0f 69bd 10f1 99bc 1ac4 3f3d
00000340: a067 21bc 3016 dc3b 7052 53bd 8a39 29bd
00000350: ea44 2d3d 9c33 f33c 0ca3 bb3c 38a4 9ebc
00000360: 20c2 7cbc 0030 5fb8 8463 003d d249 023d
00000370: a487 463d 7cba bbbc 046f 0e3d 609e 403d
00000380: e0f9 1dbc cad5 133d aadd 383d 3c01 ba3c
00000390: 2c31 9ebc 28cb 39bd 30c1 f93b 9844 13bd
000003a0: 005b 5cbb 64df 24bd a866 3abd 5002 be3b
000003b0: a016 0cbb b85d 073c 4e9c 5e3d 90be d23c
000003c0: f45a 6cbd 0042 543d 10e6 7dbc 18c4 013c
000003d0: 90fa 51bc 440b 65bd 8023 92ba 28a4 633d
000003e0: f252 69bd aee7 723d 12fa 7d3d 60be b9bc
000003f0: 98bd 0fbc 5e2a 4f3d 3a7e 59bd 18e0 9c3c

layers.4.bias f4 [128]
-0.010255821 0.026793592 0.05987738 0.047974296 0.036310717 0.019135036 -0.0028066486 0.009489365
0.050073497 -0.048749335 0.046377115 -0.037537195 -0.03625729 -0.039872177 -0.048973083 0.047989793
-0.017299041 0.0036046803 0.02239357 -0.001946032 -0.020450681 0.029321246 -0.03313721 -0.012844153
-0.028329112 0.008759834 -0.05618067 -0.053098284 -0.046122864 -0.032269143 -0.04398811 -0.036556803
-0.06172838 0.0061897337 -0.0065288097 -0.02132646 0.0008043125 -0.018836439 -0.048128836 0.054988958
0.008592561 0.05782775 0.0012896508 -0.04029058 0.04127202 0.054022312 0.010404348 -0.050082386
-0.04989241 0.012014203 -0.014257133 0.029300228 -0.056185395 0.046566322 -0.036893703 0.0043261126
-0.025734946 -0.00704515 0.051807567 -0.056589864 -0.03158106 -0.021027267 2.7447939e-05 -0.061210357
0.015959539 0.047160514 -0.0063914135 0.061841838 -0.048847362 0.043681666 0.060674585 -0.040709592
0.012601756 -0.05180808 -0.046086542 0.028518558 0.0065359026 0.0005679652 0.04454469 -0.035630412
-0.042280212 -0.022582248 0.02746062 -0.054543182 0.014638975 -0.040249497 -0.0124886185 0.04417757
0.031409025 -0.02852042 -0.06215992 -0.044032678 0.05747833 -0.062464282 -0.005762294 -0.047452457
0.013493903 0.050941795 -0.024558365 -0.03326109 -0.025578462 -0.005595036 0.0378713 -0.056347363
0.025430337 0.026114203 0.030320391 -0.03947778 0.05599934 -0.041151866 0.054530233 0.0044177324
0.055719204 0.06169659 -0.056273893 0.013749234 -0.005543746 -0.006571412 -0.057115845 -0.009397134
0.0063699484 -0.011690214 0.019607 0.0038413703 -0.0161421 -0.0063726455 -0.0068703517 0.012828231
00000000: 0808 28bc 3c7e db3c fc41 753d b280 443d
00000010: 8cba 143d 14c1 9c3c c0ef 37bb 4879 1b3c
00000020: de19 4d3d 62ad 47bd eef5 3d3d 9ac0 19bd
00000030: 8682 14bd 0251 23bd 0098 48bd f290 443d
00000040: b8b6 8dbc 803c 6c3b b872 b73c 0012 ffba
00000050: 3088 a7bc 1c33 f03c e2ba 07bd 4870 52bc
00000060: 7412 e8bc 6885 0f3c b41d 66bd 967d 59bd
00000070: 54eb 3cbd a62c 04bd e02c 34bd 96bc 15bd
00000080: e6d6 7cbd 40d3 ca3b a0ef d5bb d4b4 aebc
00000090: 80d8 523a e04e 9abc be22 45bd 1a3c 613d
000000a0: d0c7 0c3c cadc 6c3d 8009 a93a bc07 25bd
000000b0: da0c 293d 8046 5d3d 0077 2a3c 3023 4dbd
000000c0: fc5b 4cbd 38d7 443c c096 69bc 0807 f03c
000000d0: a822 66bd 54bc 3e3d da1d 17bd 10c2 8d3b
000000e0: 18d2 d2bc 00db e6bb 2c34 543d c6ca 67bd
000000f0: 245b 01bd 6041 acbc 0040 e637 b6b7 7abd
00000100: 94bd 823c 622b 413d 106f d1bb de4d 7d3d
00000110: 2c14 48bd 8ceb 323d ea85 783d 1abf 26bd
00000120: 9877 4e3c b634 54bd 3ec5 3cbd c09f e93c
00000130: 202b d63b 80e3 143a 7e74 363d 32f1 11bd
00000140: 042e 2dbd 68fe b8bc 18f5 e03c ac68 5fbd
00000150: 50d8 6f3c a8dc 24bd 109d 4cbc 8af3 343d
00000160: c0a6 003d a8a3 e9bc 669b 7ebd 9c5b 34bd
00000170: 666e 6b3d 8cda 7fbd a0d1 bcbb 825d 42bd
00000180: 8815 5d3c 58a8 503d a02e c9bc c83c 08bd
00000190: ec89 d1bc 9056 b7bb f01e 1b3d 7ecc 66bd
000001a0: 4853 d03c 74ed d53c 7862 f83c 74b3 21bd
000001b0: 905f 653d dc8e 28bd 185b 5f3d a0c2 903b
000001c0: d239 643d 90b5 7c3d 747f 66bd 7844 613c
000001d0: 50a8 b5bb 0055 d7bb 4ef2 69bd 70f6 19bc
000001e0: 00bb d03b 5088 3fbc dc9e a03c 80bf 7b3b
000001f0: 703c 84bc a0d1 d0bb b020 e1bb 802d 523c

layers.6.weight f4 [5, 128]
0.027905509 -0.035046328 0.038016357 -0.076328725 0.05152128 0.011630751 0.056387715 0.029791355
0.05509367 0.08540917 0.0028714314 -0.02241753 0.03891336 0.0020258725 0.07910397 -0.037104875
-0.085777 0.07852482 0.040820487 -0.024284184 -0.030184433 -0.08019246 0.041834988 -0.05864399
0.0059047937 -0.001623109 0.0072991773 -0.08707777 0.07727336 -0.040265907 0.07153068 -0.046606407
-0.066319086 0.0124469325 0.050269596 0.072698556 0.003100656 0.0743554 -0.03096158 -0.0036047325
0.06597721 -0.015298389 -0.032319814 -0.04890323 0.027533099 0.015111193 0.05613341 0.03067772
-0.03000554 -0.06287462 0.027008384 0.04683932 0.039796732 0.02257517 0.07775275 -0.009064324
0.053438105 0.053775497 0.03076218 0.084289394 -0.032916624 -0.053425588 0.052035518 -0.036295917
0.001921624 -0.033537734 -0.049507543 -0.05718571 0.024846338 0.009955347 -0.028849095 0.00595887
-0.083725855 0.05411955 0.024313122 -0.03852027 0.032140076 0.037314348 -0.01811406 -0.04214555
0.076488145 -0.007382907 -0.013418585 -0.031645298 0.048494555 -0.08268811 0.078101896 -0.0156200975
0.013553597 -0.050095394 -0.047802586 0.07681564 -0.07820463 -0.029381275 0.06552518 0.045697115
0.019420944 0.06796912 0.06341498 0.06510467 -0.0008894354 0.082893424 0.009719841 0.030896917
-0.03106112 0.023790054 -0.0007773861 0.026471205 0.02585841 0.051256947 -0.0705861 0.04718826
0.021223791 -0.04116822 0.0056385323 -0.019313931 0.005300358 -0.068942636 -0.08416535 -0.056837626
-0.084197156 0.03456893 -0.0019347742 -0.07862344 0.08712231 -0.08304596 -0.030215263 -0.03532029
0.084468685 0.081302755 0.017015912 -0.020217106 -0.073704 -0.044848956 0.061017074 0.07334522
0.032009743 0.049361326 -0.08008955 -0.068710595 -0.07300665 0.06895491 0.042765804 -0.06559927
0.06562055 0.0032648295 0.037870906 -0.08412687 -0.034034684 -0.06076373 -0.08197567 -0.04636778
0.016180798 -0.023897387 -0.05193812 -0.024462223 0.039100997 0.04603865 0.07787163 0.044073842
0.05414944 0.05552181 -0.014669202 -0.07349419 0.009613484 0.035846896 0.028336622 -0.052138317
-0.06949546 0.08060116 -0.007299304 -0.041217268 0.04968875 0.04021556 0.007440239 -0.072736196
-0.010745272 -0.039987043 -0.04740258 0.07551397 0.062076367 -0.08633978 -0.048452564 0.05091899
0.066752546 -0.039574657 0.05279731 -0.033408437 0.06986808 0.056029625 -0.0057660565 -0.008920886
-0.06602059 -0.013763778 0.04344096 0.013827093 0.06907845 0.0062713474 -0.023856156 0.037082933
-0.070331395 0.07300218 0.0083620325 -0.06264521 -0.001694724 0.052574165 0.07934452 -0.013763383
0.07712939 -0.0026157275 0.021931842 0.08793298 0.0021982118 0.040202297 0.07099239 0.031274065
-0.0697371 -0.04493717 0.08596436 0.0025100634 0.00037434697 0.066054784 -0.087926745 -0.06016683
-0.03822799 -0.05978012 0.031338945 0.017151773 -0.032004442 0.026304238 0.07365186 0.056245334
0.06438697 0.07261922 -0.058355197 0.0008969605 0.060130663 0.06791883 0.033976436 -0.023059234
-0.031504832 0.06429414 0.04865425 -0.07333154 0.051208653 -0.015542448 -0.018428259 0.07445293
0.075100936 -0.04731801 -0.045267496 0.04106719 0.0042342544 0.05530516 -0.025783516 -0.047748953
00000000: 189a e43c bd8c 0fbd 0ab7 1b3d 3c52 9cbd
00000010: fa07 533d e88e 3e3c cef6 663d 000d f43c
00000020: e6a9 613d 01eb ae3d a02e 3c3b f8a4 b7bc
00000030: 9e63 1f3d 80c4 043b 4301 a23d 48fb 17bd
00000040: daab afbd 9fd1 a03d 6233 273d a0ef c6bc
00000050: 5845 f7bc f23b a4bd 2a5b 2b3d ae34 70bd
00000060: 007d c13b 80be d4ba f02d ef3b d455 b2bd
00000070: 7f41 9e3d dded 24bd ad7e 923d 5ce6 3ebd
00000080: 4dd2 87bd 38ee 4b3c 7ee7 4d3d fbe2 943d
00000090: 6034 4b3b a547 983d 24a3 fdbc 603d 6cbb
000000a0: 0f1f 873d 18a6 7abc c861 04bd c14e 48bd
000000b0: 188d e13c f094 773c 26ec 653d d84f fb3c
000000c0: 2ece f5bc 69c4 80bd b040 dd3c 96da 3f3d
000000d0: e601 233d 90ef b83c d53c 9f3d 8882 14bc
000000e0: eae1 5a3d b243 5c3d f800 fc3c eb9f ac3d
000000f0: 95d3 06bd cad4 5abd 3223 553d 07ab 14bd
00000100: 00df fb3a dd5e 09bd 6cc8 4abd 903b 6abd
00000110: 8c8a cb3c c01b 233c f054 ecbc a042 c33b
00000120: 7678 abbd 76ac 5d3d 502c c73c 6ec7 1dbd
00000130: 50a5 033d eed6 183d f063 94bc d0a0 2cbd
00000140: d1a5 9c3d 50ec f1bb a0d9 5bbc 809e 01bd
00000150: 3aa2 463d 6258 a9bd e3f3 9f3d 70eb 7fbc
00000160: e80f 5e3c d430 4dbd a5cc 43bd 8551 9d3d
00000170: c029 a0bd 00b1 f0bc 1132 863d e62c 3b3d
00000180: ac18 9f3c 6533 8b3d b7df 813d 9955 853d
00000190: 0029 69ba 07c4 a93d f83f 1f3c 881b fd3c
000001a0: e473 febc 5ce3 c23c 80c9 4bba 24da d83c
000001b0: 04d5 d33c cef2 513d 728f 90bd 7a48 413d
000001c0: 84dd ad3c 02a0 28bd 70c3 b83b 4038 9ebc
000001d0: a0ae ad3b cc31 8dbd e25e acbd 92ce 68bd
000001e0: 8f6f acbd 2698 0d3d 4098 fdba 5305 a1bd
000001f0: 2f6d b23d 0014 aabd 0086 f7bc 02ac 10bd
00000200: ebfd ac3d 0f82 a63d f464 8b3c 589e a5bc
00000210: 1ff2 96bd 8ab3 37bd 0aed 793d 0536 963d
00000220: a61c 033d 1a2f 4a3d fd05 a4bd 24b8 8cbd
00000230: 8384 95bd 3b38 8d3d 322b 2f3d e958 86bd
00000240: 1164 863d c0f6 553b 861e 1b3d b54a acbd
00000250: f467 0bbd 64e3 78bd dce2 a7bd 24ec 3dbd
00000260: 988d 843c 74c4 c3bc 11bd 54bd 0065 c8bc
00000270: 5e28 203d 0693 3c3d 297b 9f3d c686 343d
00000280: cecb 5d3d d66a 633d 1857 70bc 1f84 96bd
00000290: e081 1d3c 32d4 123d 3422 e83c fd8e 55bd
000002a0: a353 8ebd 3912 a53d 002f efbb 70d3 28bd
000002b0: 6e86 4b3d 12b9 243d 40cd f33b b7f6 94bd
000002c0: f00c 30bc 74c9 23bd 3529 42bd 11a7 9a3d
000002d0: ca43 7e3d e9d2 b0bd 3276 46bd 6e90 503d
000002e0: 8fb5 883d 0919 22bd fe41 583d 49d7 08bd
000002f0: ff16 8f3d 527f 653d 30f1 bcbb e828 12bc
00000300: ce35 87bd 7881 61bc 26ef 313d 088b 623c
00000310: 0179 8d3d e07f cd3b fc6d c3bc 46e4 173d
00000320: e809 90bd 2b82 953d e800 093c 224c 80bd
00000330: 8021 deba 0258 573d 617f a23d d07f 61bc
00000340: 03f6 9d3d a06c 2bbb 68aa b33c 3516 b43d
00000350: e00f 103b 2aab 243d 7564 913d 3c19 003d
00000360: 53d2 8ebd 0a10 38bd 150e b03d e07f 243b
00000370: 0044 c439 bb47 873d f012 b4bd 7e71 76bd
00000380: f494 1cbd 00dc 74bd 445d 003d e081 8c3c
00000390: 1717 03bd fc7b d73c c9d6 963d 8261 663d
000003a0: 51dd 833d 63b9 943d dc05 6fbd 0022 6b3a
000003b0: 924b 763d 0719 8b3d e02a 0b3d b8e6 bcbc
000003c0: 360b 01bd a5ac 833d ae49 473d d92e 96bd
000003d0: 2ac0 513d c0a5 7ebc dcf6 96bc c77a 983d
000003e0: 85ce 993d 88d0 41bd 696a 39bd 1236 283d
000003f0: 80bf 8a3b aa87 623d f437 d3bc 6894 43bd

layers.6.bias f4 [5]
0.082581945 -0.05659033 0.017754637 0.07909336 -0.07414082
00000000: b920 a93d 43cb 67bd 2c72 913c b3fb a13d
00000010: 24d7 97bd

conv1.weight f4 [5, 3, 1, 1]
-0.13346775 -0.30920297 -0.46869072 0.1575562 -0.2678474 0.4006963 0.06663629 0.0756124
-0.34206107 -0.5357187 -0.432377 0.28894353 0.46110794 0.19835134 -0.11880169
00000000: c5ab 08be da4f 9ebe 3bf8 efbe 6a56 213e
00000010: 4b23 89be 1128 cd3e 9b78 883d adda 9a3d
00000020: a122 afbe dc24 09bf 8560 ddbe 68f0 933e
00000030: 5716 ec3e 9d1c 4b3e 4d4e f3bd

conv1.bias f4 [5]
0.38661677 0.5149472 0.29029506 -0.20025909 -0.5024986
00000000: a2f2 c53e 94d3 033f 8ea1 943e b810 4dbe
00000010: c0a3 00bf

conv2.weight f4 [40, 20, 1, 1]
0.103055626 0.13503394 -0.21259579 0.15818724 0.18331191 -0.008700788 -0.06593566 0.057641
-0.11966884 0.09899387 0.048544407 -0.22219536 0.030979812 -0.15779501 -0.009113029 0.1909535
0.12724257 0.0766232 -0.120206274 0.17225817 -0.1761251 -0.02579771 -0.14364159 0.16656989
-0.18474524 0.20716307 0.17793044 0.110290796 -0.09268914 -0.13464254 -0.20315263 -0.13372037
0.055535138 0.1441308 0.06978297 -0.007147491 -0.0933222 0.19367278 0.053013146 0.010673538
0.1230492 0.062275946 -0.11162003 -0.016280323 -0.077837914 0.0677968 -0.12915747 -0.102490164
0.1617778 -0.16061945 -0.18928276 -0.11494009 0.10730809 0.075081795 0.13716173 -0.114692695
-0.16340815 0.094790876 0.0351941 0.19029263 0.12443158 0.15029377 -0.10727998 0.18741238
0.01961717 0.10519576 -0.05425358 0.082960784 -0.16135362 -0.215169 -0.01751174 0.15408683
0.157558 0.07010871 -0.15366846 0.14548153 -0.023347333 0.21165025 0.004580945 0.026823878
-0.024200246 -0.06422232 -0.20229185 -0.1743496 0.102576196 0.12464681 0.038226485 -0.07525265
0.13778481 0.043832064 0.08302724 -0.03837596 -0.012430713 0.036308706 -0.09423712 -0.12698857
0.16130942 0.034131736 -0.048369184 0.10333988 0.03580454 0.11983794 -0.02889964 -0.16530336
0.11501166 0.04798153 -0.16701064 0.19447187 0.13063943 0.070251405 0.15857989 -0.14252111
0.19338298 -0.16124006 -0.025942072 -0.04141046 0.0129541755 -0.06798729 -0.1259816 -0.20761517
0.12725723 0.16110626 0.15209806 -0.19324882 0.03485295 0.17577586 -0.13160703 -0.122045115
-0.110797904 0.040507436 0.21532434 -0.08536066 -0.07432681 0.21337962 0.020421147 0.10063797
-0.03968379 0.21783349 0.03530681 0.22358286 -0.10615587 -0.16844219 -0.17006706 -0.08217338
0.189563 0.20108655 0.19193506 -0.0074882805 -0.00847739 -0.22125618 -0.03895776 0.13288727
0.057631522 -0.020227835 -0.12685144 0.0085531175 -0.16066444 -0.07258244 0.039836377 -0.116381995
-0.0914478 0.12051353 -0.08258413 0.024851605 0.21840954 0.0067418963 0.17785814 0.16554755
-0.12571453 -0.078915104 0.17433578 0.049136043 0.044961005 0.16316304 -0.115185246 -0.016020387
-0.21513784 -0.118659906 0.07996112 0.07452896 -0.15264243 -0.1259169 -0.110346355 -0.18390776
-0.16071165 -0.11382946 -0.14027369 -0.13505186 0.124976486 -0.19687977 0.036800653 -0.0018097311
0.05090055 0.06452906 -0.06260635 -0.21074311 -0.10772423 0.014503717 -0.17459428 0.08737272
0.1636813 -0.17149049 0.04517919 -0.021358848 -0.040545866 -0.1455957 0.02141501 -0.13829912
-0.050629616 -0.1057535 0.13714424 0.036831826 0.16251788 -0.069161564 0.13526863 0.035521895
-0.09681694 0.18237385 -0.13390487 -0.017187014 0.049877197 0.2036314 -0.11324066 -0.12216453
-0.021515608 -0.19115049 -0.21032529 -0.17104375 0.15439704 0.11090034 0.1816197 -0.021839485
-0.10583344 0.08315924 -0.11856459 0.021397978 -0.017364502 0.035460353 -0.01899305 -0.09235421
0.040611267 0.21184623 0.025785476 0.04348272 -0.099175006 -0.030869275 0.15492174 0.22085384
-0.17748156 0.14721707 0.12064627 0.056605965 0.024995387 -0.11070109 -0.21846935 0.06959331
00000000: d40e d33d 5646 0a3e b6b2 59be d6fb 213e
00000010: 1eb6 3b3e c08d 0ebc 4609 87bd f818 6c3d
00000020: f014 f5bd 4cbd ca3d 80d6 463d 2e87 63be
00000030: 60c9 fd3c 0495 21be d04e 15bc 5089 433e
00000040: e04b 023e a0ec 9c3d b52e f6bd 7264 303e
00000050: 235a 34be b855 d3bc c816 13be 4c91 2a3e
00000060: db2d 3dbe 8e22 543e 6633 363e 24e0 e13d
00000070: ced3 bdbd bcdf 09be 3e07 50be feed 08be
00000080: d078 633d 0697 133e 60ea 8e3d 8035 eabb
00000090: b61f bfbd 2852 463e 5024 593d 10e0 2e3c
000000a0: 3801 fc3d 1015 7f3d 0b99 e4bd 505e 85bc
000000b0: 7c69 9fbd 0cd9 8a3d db41 04be 5de6 d1bd
000000c0: 14a9 253e 6d79 24be 57d3 41be b665 ebbd
000000d0: 58c4 db3d 7cc4 993d 2074 0c3e 01e4 eabd
000000e0: 7754 27be b821 c23d b027 103d 12dc 423e
000000f0: fcd5 fe3d 9ce6 193e 9bb5 dbbd 08e9 3f3e
00000100: 30b4 a03c e070 d73d 0039 5ebd 58e7 a93d
00000110: e239 25be 4355 5cbe c874 8fbc f0c8 1d3e
00000120: e256 213e 2895 8f3d 445b 1dbe 1cf9 143e
00000130: e842 bfbc d8ba 583e c01b 963b c0bd db3c
00000140: 983f c6bc fe86 83bd 9825 4fbe b488 32be
00000150: 7813 d23d d446 ff3d 6093 1c3d 101e 9abd
00000160: 7617 0d3e 4089 333d 300a aa3d 1c30 1dbd
00000170: 30aa 4bbc 70b8 143d 64ff c0bd 4b09 02be
00000180: 4c2e 253e b8cd 0b3d c41e 46bd dca3 d33d
00000190: c8a7 123d 986d f53d f0be ecbc 4945 29be
000001a0: 3c8b eb3d 4888 443d d604 2bbe a223 473e
000001b0: 58c6 053e f8df 8f3d c462 223e 0ef1 11be
000001c0: 3006 463e 1d1c 25be 7884 d4bc 049e 29bd
000001d0: c03d 543c ec3c 8bbd 5201 01be 1299 54be
000001e0: b84f 023e 0af9 243e 98bf 1b3e 05e3 45be
000001f0: f8c1 0e3d 96fe 333e fec3 06be caf2 f9bd
00000200: 03ea e2bd 20eb 253d fc7d 5c3e 92d1 aebd
00000210: a838 98bd 3080 5a3e 404a a73c 481b ce3d
00000220: 788b 22bd be0f 5f3e e09d 103d e8f2 643e
00000230: 4068 d9bd 1c7c 2cbe 0f26 2ebe 844a a8bd
00000240: ce1c 423e a2e9 4d3e a08a 443e 4060 f5bb
00000250: c0e4 0abc fb90 62be 2c92 1fbd 9a13 083e
00000260: 080f 6c3d d8b4 a5bc 58e5 01be 6022 0c3c
00000270: 3885 24be 1aa6 94bd 782b 233d af59 eebd
00000280: fc48 bbbd cccf f63d de21 a9bd 9895 cb3c
00000290: c0a6 5f3e 20eb dc3b 7220 363e 4c85 293e
000002a0: 4fbb 00be 3e9e a1bd 1485 323e e042 493d
000002b0: 0829 383d 3614 273e 3ee6 ebbd 303d 83bc
000002c0: 184d 5cbe f703 f3bd a8c2 a33d a4a2 983d
000002d0: 4c4e 1cbe 5cf0 00be 45fd e1bd 5152 3cbe
000002e0: 9891 24be 6c1f e9bd e8a3 0fbe 094b 0abe
000002f0: acf3 ff3d da9a 49be 48bc 163d 8034 edba
00000300: 187d 503d d027 843d c237 80bd 0bcd 57be
00000310: 859e dcbd 00a1 6d3c d8c8 32be 78f0 b23d
00000320: 129c 273e 349b 2fbe d00d 393d c0f8 aebc
00000330: 6c13 26bd 0a17 15be 886e af3c 499e 0dbe
00000340: 0061 4fbd 4a95 d8bd 8a6f 0c3e f8dc 163d
00000350: 166b 263e 94a4 8dbd dc83 0a3e 687f 113d
00000360: f647 c6bd 36c0 3a3e 5c1e 09be c8cb 8cbc
00000370: 084c 4c3d c084 503e b8ea e7bd 6631 fabd
00000380: 8041 b0bc f4bc 43be 835f 57be 1826 2fbe
00000390: 421a 1e3e b81f e33d 84fa 393e b8e8 b2bc
000003a0: 34bf d8bd 644f aa3d fed1 f2bd d04a af3c
000003b0: 0040 8ebc e03e 113d 5097 9bbc 3424 bdbd
000003c0: 0058 263d 38ee 583e 103c d33c f01a 323d
000003d0: 441c cbbd 90e1 fcbc cea3 1e3e 8227 623e
000003e0: babd 35be 12c0 163e 6415 f73d a8db 673d
000003f0: 20c3 cc3c 41b7 e2bd 6eb6 5fbe f086 8e3d

conv2.bias f4 [40]
-0.20090185 0.017496973 -0.15731245 -0.18414924 -0.1716605 0.22021374 0.155574 -0.106449455
0.044945 0.15537861 0.10386476 0.010969192 -0.14972243 -0.11481694 0.059598565 0.078799576
-0.10236472 0.11110109 0.1643185 0.17303663 0.19656497 -0.101464756 0.025654837 -0.14520854
0.0047144145 0.096568525 -0.020921364 0.010336325 -0.1529007 -0.15162444 0.061449975 -0.21211144
-0.14542168 0.023565933 0.03373429 0.014186487 -0.10042557 0.083179 0.2006773 -0.21143979
00000000: 37b9 4dbe d055 8f3c 8416 21be 9e91 3cbe
00000010: c5c7 2fbe b67f 613e ca4e 1f3e 2c02 dabd
00000020: 4018 383d 921b 1f3e 0cb7 d43d 20b8 333c
00000030: d650 19be 2525 ebbd a01d 743d ac61 a13d
00000040: 98a4 d1bd f888 e33d 1c43 283e 8430 313e
00000050: 5448 493e c1cc cfbd 182a d23c 8cb1 14be
00000060: 607b 9a3b b8c5 c53d 4863 abbc b059 293c
00000070: 0092 1cbe 7043 1bbe f8b2 7b3d be33 59be
00000080: 6ce9 14be 580d c13c f82c 0a3d 706e 683c
00000090: ecab cdbd c059 aa3d 5a7e 4d3e ac83 58be

conv3.weight f4 [20, 40, 1, 1]
0.10484384 -0.021031126 -0.048467517 0.113566294 0.0460442 0.13669674 0.032548532 -0.12065473
0.1520826 -0.13493969 0.06757082 -0.09393434 0.14005588 0.017365828 0.1124195 -0.052773
0.13018648 0.06390475 -0.13053097 -0.060460135 -0.054194957 -0.02474773 -0.079236925 0.07034753
0.15684406 -0.013384283 -0.0618523 -0.15165909 0.017033443 -0.07132836 -0.08245554 -0.07677795
-0.14165556 0.14397542 0.123240486 0.035307273 0.035085604 0.13246371 0.045487612 0.063048735
-0.07542941 0.078361034 0.115915075 -0.10000807 -0.10433318 0.10642068 -0.10373685 0.04970461
0.14459626 -0.06954488 0.03136897 -0.090577304 -0.050408415 0.002938956 -0.12886684 -0.1144278
0.1518114 0.0070468634 -0.13037105 -0.1205702 -0.018155336 -0.07173023 -0.050786555 0.08363952
-0.08888283 -0.006354049 -0.13457409 -0.016618937 -0.048648365 0.1351284 -0.02964221 -0.012486115
-0.06110376 -0.11255303 0.086131856 -0.0042892694 0.07473649 0.11904164 -0.038673066 0.14266934
0.0423512 -0.15020522 0.017713383 0.03588085 0.0035014749 -0.02915284 0.030849501 0.0867182
-0.11683156 0.12111719 -0.059247114 0.092305884 -0.097102895 -0.12539408 -0.06564621 -0.15314472
0.07160653 0.026913509 0.13404061 0.13862206 -0.15504229 0.14030181 0.12459539 -0.1579104
-0.12904912 0.008693859 0.010076329 -0.14412597 -0.062262595 -0.120038114 -0.05712387 -0.028419986
0.13152961 0.0523936 0.11784403 0.1537341 -0.055217363 -0.089407146 0.12950833 0.1442457
-0.1041784 -0.13724098 0.05577235 0.02093497 0.12472211 0.1539513 0.081858814 -0.15495402
0.15778212 0.14403729 -0.028976902 -0.11981988 0.08476429 -0.14897937 -0.121540695 -0.08387944
-0.13453819 0.12510155 -0.02394323 0.08616379 0.075604096 0.11377634 0.021431342 -0.11161558
-0.031493276 0.00827603 0.07595922 0.10882498 0.05019252 0.062699586 0.09414895 0.051469997
-0.042254776 0.116860315 0.10938828 0.098046586 -0.064665414 -0.077561416 -0.022539586 0.055681363
-0.14844945 -0.077646814 -0.0036933422 0.05887261 -0.11819348 -0.059095606 0.0805044 0.048669353
0.005391285 0.019639313 0.057075545 0.1507967 0.05979596 0.06292163 0.10030903 -0.008960873
0.076668754 -0.1485541 -0.15488537 -0.07791988 -0.017418355 0.046580046 0.071409315 -0.1037219
-0.14103925 -0.016125754 0.07116063 0.045554444 -0.03014271 -0.0098383725 0.025577798 0.08734448
-0.051331833 0.14137255 -0.10839461 0.015377849 -0.1529237 -0.010589048 0.037630692 -0.106007524
0.15272729 -0.017912224 -0.08108747 0.14607732 0.02862303 0.05503291 -0.10966997 0.005668521
0.124448106 0.14496006 -0.14379081 -0.110234365 -0.123347275 -0.1001939 0.058011785 0.074839815
0.15295108 0.009335339 0.08203314 -0.0051980913 0.024179608 0.034252077 -0.005789548 0.03964284
-0.13018215 0.063470185 0.03305462 -0.027282923 0.09245093 0.118573055 0.08509746 -0.052799933
-0.09729511 0.029132932 -0.12167014 -0.12669238 0.016275212 -0.1462166 0.003738895 -0.13369696
0.06946902 0.008643702 -0.118138455 0.15763937 0.11935662 -0.04683862 -0.13554952 0.14848809
0.0811152 0.1433899 0.04857096 -0.03263189 -0.088347964 0.10434888 0.124873 0.12884267
00000000: 5eb8 d63d 7849 acbc e085 46bd 7295 e83d
00000010: d898 3c3d 3bfa 0b3e 9c51 053d d419 f7bd
00000020: 8bbb 1b3e a12d 0abe 9262 8a3d a660 c0bd
00000030: cf6a 0f3e c842 8e3c 323c e63d 8028 58bd
00000040: 9b4f 053e 7ee0 823d e9a9 05be 0ca5 77bd
00000050: 88fb 5dbd c0bb cabc f846 a2bd 5e12 903d
00000060: bb9b 203e c049 5bbc d658 7dbd 854c 1bbe
00000070: b889 8b3c 9a14 92bd 73de a8bd c23d 9dbd
00000080: 280e 11be 4b6e 133e 8265 fc3d 5c9e 103d
00000090: ecb5 0f3d 91a4 073e 3851 3a3d b21f 813d
000000a0: bc7a 9abd c07b a03d e264 ed3d 08d1 ccbd
000000b0: a2ac d5bd 16f3 d93d fc73 d4bd 1097 4b3d
000000c0: 0b11 143e 8c6d 8ebd c07c 003d 9880 b9bd
000000d0: 0e79 4ebd 809b 403b abf5 03be 1f59 eabd
000000e0: 7374 1b3e 60e9 e63b fd7f 05be 82ed f6bd
000000f0: 80ba 94bc 4ce7 92bd 9005 50bd 324b ab3d
00000100: 3408 b6bd a035 d0bb cacd 09be 7024 88bc
00000110: 8243 47bd 195f 0a3e 38d4 f2bc 9092 4cbc
00000120: f047 7abd 3482 e6bd e665 b03d 008d 8cbb
00000130: 720f 993d 1acc f33d a667 1ebd e917 123e
00000140: 7478 2d3d 66cf 19be a81b 913c ccf7 123d
00000150: 0079 653b f0d1 eebc 18b8 fc3c 5099 b13d
00000160: 6345 efbd 4a0c f83d 1aad 72bd de0a bd3d
00000170: e2dd c6bd 4e67 00be 8571 86bd f8d1 1cbe
00000180: 72a6 923d b879 dc3c f141 093e f1f2 0d3e
00000190: 68c3 1ebe 47ab 0f3e de2b ff3d 44b3 21be
000001a0: 7425 04be b070 0e3c 3017 253c c295 13be
000001b0: 1007 7fbd 8bd6 f5bd b8fa 69bd 08d1 e8bc
000001c0: b3af 063e ac9a 563d 3658 f13d 796c 1d3e
000001d0: 9a2b 62bd 181b b7bd d59d 043e 25b5 133e
000001e0: 7c5b d5bd e688 0cbe 8c71 643d d07f ab3c
000001f0: 4e6e ff3d 69a5 1d3e 98a5 a73d 44ac 1ebe
00000200: a391 213e 837e 133e f860 edbc 2064 f5bd
00000210: e698 ad3d 0c8e 18be 54ea f8bd fcc8 abbd
00000220: 61c4 09be 9f1a 003e 9824 c4bc a476 b03d
00000230: 52d6 9a3d 9203 e93d c890 af3c b696 e4bd
00000240: 18ff 00bd 3098 073c 8290 9b3d a2df de3d
00000250: ac96 4d3d a468 803d 2ad1 c03d 34d2 523d
00000260: 5813 2dbd 7654 ef3d f606 e03d a6cc c83d
00000270: 4d6f 84bd 85d8 9ebd f0a4 b8bc 2412 643d
00000280: 2203 18be 4b05 9fbd 000c 72bb 6824 713d
00000290: 6c0f f2bd 3c0e 72bd 7edf a43d 8459 473d
000002a0: 60a9 b03b a0e2 a03c 0cc8 693d 736a 1a3e
000002b0: 9cec 743d 0edd 803d d26e cd3d a0d0 12bc
000002c0: 8204 9d3d 911e 18be 459a 1ebe 7594 9fbd
000002d0: f0b0 8ebc b8ca 3e3d 0c3f 923d 266c d4bd
000002e0: 986c 10be 281a 84bc aabc 913d 4c97 3a3d
000002f0: d8ed f6bc 2031 21bc 8888 d13c aae1 b23d
00000300: 5441 52bd f7c3 103e fefd ddbd 60f3 7b3c
00000310: 0898 1cbe b07d 2dbc a422 1a3d 791a d9bd
00000320: 8b64 1c3e a8bc 92bc 3011 a6bd 4b95 153e
00000330: d87a ea3c 306a 613d a69a e0bd 00bf b93b
00000340: a6de fe3d 6970 143e e63d 13be 8ec2 e1bd
00000350: 7f9d fcbd 7632 cdbd c49d 6d3d 9e45 993d
00000360: 359f 1c3e 40f3 183c fe00 a83d c054 aabb
00000370: 5014 c63c e84b 0c3d 40b6 bdbb 8860 223d
00000380: 784e 05be a8fc 813d 4864 073d 7080 dfbc
00000390: ea56 bd3d 6ed6 f23d 9447 ae3d be44 58bd
000003a0: a942 c7bd 30a8 ee3c 322e f9bd a6bb 01be
000003b0: 9853 853c ceb9 15be 4008 753b dbe7 08be
000003c0: c645 8e3d 509e 0d3c 93f2 f1bd 376c 213e
000003d0: 3e71 f43d dad9 3fbd 7ecd 0abe 430d 183e
000003e0: ba1f a63d cdd4 123e 58f2 463d 04a9 05bd
000003f0: c7ef b4bd deb4 d53d 6abd ff3d 55ef 033e

conv3.bias f4 [20]
-0.1257948 0.003945872 -0.06460872 -0.0074107647 0.033007488 -0.12087552 0.051928967 -0.10230592
-0.08574337 -0.07275497 -0.01794523 -0.05648443 -0.08403838 -0.052086227 -0.09426218 0.036562636
0.008059159 -0.1397239 -0.0036269128 0.10329454
00000000: 5ad0 00be 604c 813b 9451 84bd 00d6 f2bb
00000010: dc32 073d 968d f7bd 78b3 543d c485 d1bd
00000020: 389a afbd 8f00 95bd e001 93bc 385c 67bd
00000030: 501c acbd 5e58 55bd 880c c1bd b4c2 153d
00000040: 900a 043c c813 0fbe 80b1 6dbb 168c d33d

conv4.weight f4 [10, 20, 1, 1]
-0.048523933 -0.18378147 0.069006205 -0.08065511 -0.12442198 -0.057125017 0.083717614 -0.14408974
0.15203017 -0.07099907 0.04008484 0.040062815 -0.02961959 -0.20264073 -0.09531559 -0.09456693
0.19170165 0.2036983 0.17574453 -0.14285344 -0.14549902 -0.14908193 -0.17823742 -0.042918324
0.20423621 0.11036092 0.22290197 0.1795193 -0.037122622 0.20079142 -0.18614921 -0.00014032423
-0.20210704 0.1612868 0.10440862 -0.121482514 -0.20448844 0.11925629 -0.14001556 0.038084835
0.13220286 0.19753951 -0.11042997 -0.133174 -0.01532878 0.20927793 -0.033303216 0.05146429
-0.057152957 -0.12836078 -0.06021686 0.16139871 -0.16635115 -0.16355276 -0.056847006 0.15394294
0.20630443 0.05192575 -0.16287687 0.13293642 0.16119966 0.028500766 -0.017207757 -0.18421611
0.013661012 -0.14970672 -0.1613146 -0.019512251 0.16863394 -0.21756873 0.031041652 -0.06976965
0.12662756 0.17164725 0.11624685 0.21540093 0.13522488 0.1467807 -0.16205159 -0.060657874
-0.12803064 -0.18991807 0.21894541 0.19057813 0.029892504 0.061671108 0.055596232 -0.035478503
0.054897785 0.10090268 -0.060126275 -0.20456518 0.13164327 0.2218121 0.07240641 0.053662807
-0.009722933 -0.17389157 0.02080077 -0.009603441 0.21569148 0.18815982 -0.020152345 0.074686944
-0.20033306 0.11154139 0.16688326 -0.17925888 0.08903387 0.08922994 -0.20180367 0.013546586
-0.20073442 0.1497528 0.1864002 0.04356113 0.107230216 -0.05614339 0.22011465 -0.12621915
0.02080293 -0.15258826 -0.07789816 -0.14396147 -0.161659 0.12282795 -0.018977374 -0.19790062
-0.14057815 0.09154108 -0.09443645 0.1141904 -0.027982086 -0.1393732 -0.21723817 0.15119815
0.102484554 -0.0486819 0.094488084 -0.08895837 0.12578312 -0.052039087 0.02810648 0.17930001
0.2109676 -0.21010904 0.07624 -0.12053583 -0.11157048 -0.21807602 0.1882633 0.20987505
-0.19099104 -0.12777668 0.15800679 -0.007861197 -0.12945583 -0.07716018 0.11686221 -0.1543935
-0.19563621 -0.05323772 -0.218409 0.14066508 -0.19394831 0.21938619 -0.19354346 -0.1598374
0.22262397 0.015974835 0.19175363 -0.10558015 0.0438551 0.065899074 -0.18301143 -0.02454269
-0.17820887 0.020429462 -0.06368381 0.0008701831 -0.043884024 0.10274616 -0.16784883 -0.113608144
-0.020350575 0.16217661 -0.15014076 0.0329009 -0.17892233 0.035930306 0.15045041 0.117449015
0.025437504 -0.17524907 -0.061736032 0.18528566 0.03219086 -0.14273372 -0.08324759 0.09563792
00000000: 08c1 46bd 3631 3cbe 2053 8d3d 822e a5bd
00000010: f3d0 febd ecfb 69bd 2474 ab3d 438c 13be
00000020: ccad 1b3e f667 91bd 0030 243d e818 243d
00000030: c8a4 f2bc 0d81 4fbe d234 c3bd 4eac c1bd
00000040: 704d 443e 4a96 503e 60f6 333e 2c48 12be
00000050: b2fd 14be efa8 18be df83 36be 20cb 2fbd
00000060: 4c23 513e e804 e23d 6a40 643e e8d3 373e
00000070: e40d 18bd 449c 4d3e e69d 3ebe 0024 13b9
00000080: 26f5 4ebe 5e28 253e 30d4 d53d d3cb f8bd
00000090: 6b65 51be a43c f43d 3d60 0fbe d8fe 1b3d
000000a0: 3060 073e cc47 4a3e 1c29 e2bd c45e 08be
000000b0: 9025 7bbc f44c 563e f468 08bd 38cc 523d
000000c0: 3819 6abd 0271 03be f4a5 76bd b445 253e
000000d0: f557 2abe 607a 27be 68d8 68bd 38a3 1d3e
000000e0: 7841 533e 18b0 543d 32c9 26be 7c20 083e
000000f0: 8611 253e 707a e93c 48f7 8cbc 26a3 3cbe
00000100: 70d2 5f3c b84c 19be a82f 25be 28d8 9fbc
00000110: 60ae 2c3e 56ca 5ebe 104b fe3c 64e3 8ebd
00000120: a8aa 013e 4cc4 2f3e d412 ee3d 1092 5c3e
00000130: 6478 0a3e ae4d 163e daf0 25be 6474 78bd
00000140: 771a 03be e279 42be 3a33 603e ea26 433e
00000150: 20e1 f43c d89a 7c3d e0b8 633d e851 11bd
00000160: 80dc 603d 10a6 ce3d f846 76bd 8979 51be
00000170: 7ecd 063e b622 633e d049 943d 88cd 5b3d
00000180: f04c 1fbc a210 32be 6066 aa3c c057 1dbc
00000190: 3ade 5c3e f8ac 403e 8816 a5bc 78f5 983d
000001a0: 1c24 4dbe d06f e43d 72e3 2a3e a48f 37be
000001b0: 6457 b63d 30be b63d 9fa5 4ebe 80f2 5d3c
000001c0: 538d 4dbe cc58 193e b2df 3e3e 286d 323d
000001d0: 849b db3d 9cf6 65bd bc65 613e 983f 01be
000001e0: e86a aa3c 1940 1cbe 1289 9fbd a36a 13be
000001f0: f089 25be 388d fb3d 7076 9bbc 76a6 4abe
00000200: b8f3 0fbe e479 bb3d e667 c1bd a8dc e93d
00000210: b03a e5bc d9b7 0ebe af73 5ebe b0d3 1a3e
00000220: 6ce3 d13d ac66 47bd f882 c13d ce2f b6bd
00000230: 4acd 003e f026 55bd 903f e63c 6c9a 373e
00000240: e407 583e d326 57be b823 9c3d 7ddb f6bd
00000250: 107f e4bd 524f 5fbe 18c8 403e 7ce9 563e
00000260: 2893 43be e4d7 02be 88cc 213e 40cc 00bc
00000270: 1290 04be 2806 9ebd 7455 ef3d 5419 1ebe
00000280: dc54 48be cc0f 5abd 9ca6 5fbe 820a 103e
00000290: 639a 46be c6a6 603e 4230 46be 6aac 23be
000002a0: 8af7 633e a8dd 823c 105b 443e 683a d8bd
000002b0: 68a1 333d 18f6 863d 5967 3bbe c00d c9bc
000002c0: 637c 36be b05b a73c a86c 82bd 001d 643a
000002d0: bcbf 33bd 946c d23d 90e0 2bbe 63ab e8bd
000002e0: 40b6 a6bc a011 263e 80be 19be 18c3 063d
000002f0: 6a37 37be a82b 133d ac0f 1a3e 1c89 f03d
00000300: 5062 d03c 7e74 33be ecde 7cbd 86bb 3d3e
00000310: 90da 033d ca28 12be b67d aabd d0dd c33d

conv4.bias f4 [10]
0.052901745 -0.14153025 -0.072470084 -0.08148417 -0.084389776 -0.16844834 -0.09090485 -0.07211234
-0.11102363 0.19755206
00000000: 80af 583d 4eed 10be 326b 94bd 2ce1 a6bd
00000010: 8cd4 acbd b97d 2cbe 522c babd a2af 93bd
00000020: 5b60 e3bd 164b 4a3e

conv5.weight f4 [5, 10, 1, 1]
0.16374764 0.18132886 0.06650972 -0.03518182 -0.11829235 -0.0134681165 0.19937769 -0.044776827
0.05270943 -0.2734957 0.15222356 -0.124115646 0.29599664 -0.16713168 0.1168049 -0.21520133
0.14207366 0.011078924 0.06415555 -0.102831155 0.10241115 0.019314945 0.2892793 0.24656013
-0.28365764 0.14996475 -0.13112862 0.31214127 -0.26351932 -0.03892985 0.29601273 -0.28182745
0.042346716 -0.28514016 -0.14117186 -0.21298854 -0.0508613 -0.2516657 -0.029816926 -0.016291589
-0.30903208 0.15218297 0.14444473 0.15793025 -0.27441153 -0.15882972 0.074269265 -0.011466771
-0.23023033 -0.2217403
00000000: 76ad 273e 46ae 393e 4036 883d d01a 10bd
00000010: 4243 f2bd 60a9 5cbc aa29 4c3e e867 37bd
00000020: d8e5 573d a107 8cbe 7ee0 1b3e 5830 febd
00000030: df8c 973e 9124 2bbe 6837 ef3d bd5d 5cbe
00000040: c27b 113e 6084 353c fc63 833d 2499 d2bd
00000050: f0bc d13d 603a 9e3c 6b1c 943e 427a 7c3e
00000060: 933b 91be 5c90 193e 9546 06be fbd0 9f3e
00000070: 01ec 86be e874 1fbd fb8e 973e b04b 90be
00000080: c073 2d3d e4fd 91be 5b8f 10be ab19 5abe
00000090: f053 50bd 54da 80be a042 f4bc f075 85bc
000000a0: 7439 9ebe dad5 1b3e 52e9 133e 78b8 213e
000000b0: ab7f 8cbe 42a4 22be 7c1a 983d 20df 3bbc
000000c0: 80c1 6bbe e40f 63be

conv5.bias f4 [5]
-0.18873754 0.2621775 0.2602344 0.14993006 -0.027186304
00000000: 6a44 41be 213c 863e 713d 853e 4487 193e
00000010: d0b5 debc

fc1.weight f4 [128, 256]
-0.0430855 0.045294948 0.0069952905 -0.02965653 0.027739301 0.010600321 0.05461134 0.0014002249
0.013016775 -0.0008805692 -0.017799146 -0.02231349 0.06236045 -0.03230311 -0.025413945 0.009157009
-0.013461128 -0.050030455 -0.052713595 0.036521345 -1.9103289e-05 0.0072735325 -0.0048860386 0.011155978
-0.056380093 -0.04705254 -0.03151636 -0.04541541 -0.039044596 0.0476631 0.03386627 -0.053703777
0.057514973 -0.022017457 -0.053468943 -0.050236337 0.0018514022 0.018940605 0.059374876 -0.032116137
0.00037060678 0.019764349 -0.010879435 0.043320328 0.061428063 0.006737508 -0.026260912 -0.018443882
0.036684647 0.024914809 0.017651 -0.048368156 -0.049876496 0.029004745 0.028577946 0.026769623
-0.008715361 -0.031580187 0.045207866 -0.055615634 0.035723023 -0.045448057 0.022343121 0.053707726
0.03703195 -0.029979631 -0.030012846 -0.040446885 -0.0014399365 -0.026905812 -0.054676943 -0.0135933235
0.023892984 0.025249049 -0.035145506 0.034342587 -0.052088052 -0.02696494 0.030158408 -0.008524999
0.013055749 0.03640881 0.04288724 -0.0307763 0.040721424 0.029943526 0.026862882 -0.029424645
-0.021761887 -0.035689645 -0.0209653 -0.039915927 0.020884402 0.046902694 -0.028346911 0.003383182
0.03484016 -0.05793476 -0.017266959 -0.0016819909 0.028471582 -0.0057175905 -0.03606262 0.04134561
-0.017061241 -0.060269967 -0.058214024 -0.0015654936 0.014496461 0.044246122 0.016354129 -0.00017324835
0.008991495 -0.052612416 0.03019064 0.009695634 0.019571386 0.011306919 0.0149682835 -0.031242646
0.018662542 -0.027042165 -0.044716552 0.01887422 0.037282355 -0.016472965 -0.030846924 -0.035772175
0.022908807 -0.058152758 0.025537424 0.054281093 -0.06229613 0.021691434 0.03423974 0.04668072
-0.023411073 0.061995156 -0.03656088 0.039444655 0.008451767 -0.048565753 -0.044824444 0.037579462
-0.048340492 0.01786194 0.028006837 -0.049195983 0.0014912859 0.028466642 0.045441873 -0.03995569
0.048977084 -0.038231015 -0.043691732 -0.007342808 0.04777258 0.030088902 0.00064598024 -0.019151643
0.011802718 0.0060215145 0.05015772 0.043199956 -0.05556632 0.058944486 -0.029496782 -0.060869567
0.052178837 -0.04680693 -0.003356941 -0.010213159 -0.046171397 0.015282229 -0.0025199354 0.04288905
-0.012462348 -0.013333157 -0.049159177 -0.042471267 0.050735444 0.020961553 -0.03458149 -0.017636128
-0.05323848 -0.06213887 0.04801654 -0.012354493 -0.059380606 0.052168503 -0.008793138 0.024858154
0.049787663 0.021085896 0.026010804 -0.005615324 -0.047806874 0.021550857 -0.032422446 -0.013975963
-0.0362193 -0.036519796 0.010704294 -0.03423193 0.020581245 0.058342226 0.00015858561 0.0012380555
-0.0018516034 -0.0043902993 0.054080628 0.0396332 -0.052543797 0.054020576 0.051994145 -0.06202589
-0.022845767 -0.04422997 0.055471405 0.015436284 -0.039628014 -0.0015602559 0.0076582134 0.048806988
0.0029598922 -0.060129642 -0.009777278 -0.0012029931 0.034302637 -0.0429437 0.04869222 -0.039984837
0.020672016 -0.014728203 -0.03210608 -0.04623069 -0.051392682 0.051937334 -0.019919463 -0.022907965
0.0027379245 -0.016078994 0.047239378 -0.043390237 -0.046630256 0.03113012 0.01061146 -0.039045095
0.035987042 -0.015675515 -0.060304485 0.061104424 0.055540055 -0.054357857 -0.047105014 -0.037588805
00000000: 6c7a 30bd 3287 393d c038 e53b 40f2 f2bc
00000010: 883d e33c f8ac 2d3c 24b0 5f3d c087 b73a
00000020: 5044 553c 00d6 66ba 84cf 91bc c8ca b6bc
00000030: ac6d 7f3d 4450 04bd e830 d0bc 4807 163c
00000040: 108c 5cbc bcec 4cbd 36ea 57bd 6897 153d
00000050: 0040 a0b7 d056 ee3b 101b a0bb 90c7 363c
00000060: d0ee 66bd 2aba 40bd 4c17 01bd 8205 3abd
00000070: 3aed 1fbd 623a 433d 5cb7 0a3d 7ef8 5bbd
00000080: d294 6b3d f45d b4bc 4002 5bbd 9ec4 4dbd
00000090: c0aa f23a 5429 9b3c 1233 733d 368c 03bd
000000a0: 004e c239 d8e8 a13c a83f 32bc a870 313d
000000b0: fe9b 7b3d 50c6 dc3b 2021 d7bc a017 97bc
000000c0: a442 163d 241a cc3c d498 903c b01d 46bd
000000d0: 4c4b 4cbd 5c9b ed3c 4c1c ea3c f84b db3c
000000e0: e0ca 0ebc 3a5a 01bd e22b 393d 38cd 63bd
000000f0: 4e52 123d be27 3abd ec08 b73c a2fc 5b3d
00000100: d0ae 173d d897 f5bc 80dd f5bc a2ab 25bd
00000110: 40bc bcba 9469 dcbc eef4 5fbd 88b6 5ebc
00000120: 38bb c33c 18d7 ce3c bcf4 0fbd d0aa 0c3d
00000130: 485a 55bd 94e5 dcbc c40e f73c 70ac 0bbc
00000140: c8e7 553c 6821 153d 88aa 2f3d 941e fcbc
00000150: 82cb 263d 204c f53c 8c0f dc3c f40b f1bc
00000160: fc45 b2bc 4e2f 12bd 6cbf abbc e27e 23bd
00000170: c415 ab3c 0a1d 403d c837 e8bc 60b8 5d3b
00000180: 8eb4 0e3d 004d 6dbd 7073 8dbc 4076 dcba
00000190: 3c3d e93c a05a bbbb 66b6 13bd 045a 293d
000001a0: 04c4 8bbc a4dd 76bd d471 6ebd 4031 cdba
000001b0: 9082 6d3c 6c3b 353d 18f9 853c 00aa 35b9
000001c0: 1051 133c 1e80 57bd 5c52 f73c 70da 1e3c
000001d0: 2c54 a03c a840 393c 883d 753c 94f0 ffbc
000001e0: 30e2 983c 8887 ddbc b428 37bd 1c9e 9a3c
000001f0: 62b5 183d 50f2 86bc b0b2 fcbc d885 12bd
00000200: 40ab bb3c 9631 6ebd dc33 d13c da55 5e3d
00000210: 3a2a 7fbd 3cb2 b13c f83e 0c3d 4834 3f3d
00000220: 94c8 bfbc a2ee 7d3d dcc0 15bd b890 213d
00000230: 4879 0a3c e2ec 46bd d699 37bd ecec 193d
00000240: ae00 46bd 3453 923c 986e e53c ba81 49bd
00000250: 4077 c33a e032 e93c 4221 3a3d 94a8 23bd
00000260: 329c 483d 2098 1cbd 1af6 32bd f09b f0bb
00000270: 2ead 433d 007d f63c 0057 293a e8e3 9cbc
00000280: 3060 413c 2050 c53b 2e72 4d3d 70f2 303d
00000290: 8299 63bd c66f 713d 3ca3 f1bc 5e52 79bd
000002a0: 7ab9 553d a0b8 3fbd 2000 5cbb 1855 27bc
000002b0: 381e 3dbd 5062 7a3c 8025 25bb 6eac 2f3d
000002c0: e02e 4cbc 5073 5abc 225b 49bd 5af6 2dbd
000002d0: f8cf 4f3d 90b7 ab3c 52a5 0dbd a479 90bc
000002e0: 9810 5abd 5485 7ebd feac 443d 806a 4abc
000002f0: 1439 73bd a4ae 553d 1811 10bc 54a3 cb3c
00000300: 26ee 4b3d 54bc ac3c 9c14 d53c c000 b8bb
00000310: 24d1 43bd 6c8b b03c 66cd 04bd 70fb 64bc
00000320: b05a 14bd c895 15bd 1061 2f3c c836 0cbd
00000330: 009a a83c 42f8 6e3d 004a 2639 4046 a23a
00000340: 80b1 f2ba 80dc 8fbb a683 5d3d 6c56 223d
00000350: 2a38 57bd ae44 5d3d d0f7 543d dc0e 7ebd
00000360: 0c27 bbbc 7c2a 35bd fc35 633d 78e8 7c3c
00000370: fc50 22bd 8081 ccba c0f1 fa3b d6e9 473d
00000380: c0fa 413b 804a 76bd e030 20bc c0ad 9dba
00000390: ec80 0c3d bce5 2fbd 7e71 473d 24c7 23bd
000003a0: 5c58 a93c 904e 71bc aa81 03bd 645c 3dbd
000003b0: 2281 52bd 3ebc 543d 242e a3bc 7ca9 bbbc
000003c0: c06e 333b 18b8 83bc 147e 413d f6b9 31bd
000003d0: 5eff 3ebd 9804 ff3c b0db 2d3c c0ed 1fbd
000003e0: 2667 133d f069 80bc d601 77bd a248 7a3d
000003f0: f87d 633d 58a6 5ebd 30f1 40bd b8f6 19bd

fc1.bias f4 [128]
-0.028333016 0.021040402 0.010269523 0.034178905 0.00896465 0.046896875 0.03871718 -0.002989024
-0.050510183 0.013371773 0.028950356 0.008556016 -0.02954559 0.014786467 -0.055015847 0.00553149
-0.051739216 -0.007941566 -0.06151089 -0.043092847 -0.052429795 0.030904062 -0.0055517703 0.052778475
-0.060474657 -0.0044685155 -0.008552864 -0.037453644 0.037852585 0.029535614 0.00618089 -0.032302253
0.0057079643 0.061350197 -0.008277543 0.045655712 -0.006919965 0.036769375 -0.018121205 -0.0030744001
-0.023246892 -0.05477751 0.051856957 -0.04837922 -0.01357314 0.01724977 0.02484446 0.018562868
0.060616113 0.038461514 -0.011172064 -0.052962035 -0.04392326 0.037880853 0.0056251064 -0.04799439
0.022303022 -0.0069553033 0.032959737 -0.025889196 0.04310587 -0.02571851 0.04840015 0.007545568
0.06009809 0.03483197 0.016793713 0.043785445 0.02189187 0.018014327 0.002019547 -0.0580478
0.057820648 0.046361394 0.026965134 -0.03986126 -0.06229049 -0.055353723 -0.05084067 -0.05271323
-0.007205054 0.05616948 0.021823041 -0.038623333 0.021078706 0.021367684 0.015068717 0.05496674
-0.055149652 -0.03828062 0.021052651 0.036179245 -0.05630382 -0.016776837 0.009791195 -0.015441373
-0.011607006 0.052746437 0.0026724935 -0.02329573 -0.040595435 0.023346275 -0.03768371 0.058890313
-0.010500282 0.05132123 0.061713442 -0.05949331 -0.015152171 -0.021734491 0.019086532 0.03648065
0.046713702 -0.024131916 -0.018086694 -0.010841325 -0.019758724 0.039168976 -0.047312416 -0.059664413
0.011830278 -0.03527853 0.0019385666 0.026819542 -0.01912865 0.04154913 -0.02771762 0.051702484
00000000: a41a e8bc ec5c ac3c 8041 283c 2eff 0b3d
00000010: 78e0 123c f016 403d e895 1e3d 80e3 43bb
00000020: c4e3 4ebd 4815 5b3c 4c29 ed3c 882e 0c3c
00000030: 9809 f2bc f042 723c 4c58 61bd 8041 b53b
00000040: 80ec 53bd 581d 02bc d8f2 7bbd 2082 30bd
00000050: a0c0 56bd 842a fd3c a0eb b5bb 3e2e 583d
00000060: 46b4 77bd a06c 92bb 5021 0cbc fe68 19bd
00000070: 500b 1b3d acf4 f13c 1089 ca3b 5e4f 04bd
00000080: e009 bb3b 584a 7b3d 889e 07bc 7c01 3b3d
00000090: e0c0 e2bb 7c9b 163d ec72 94bc e07b 49bb
000000a0: 4470 bebc 625e 60bd f667 543d 4a29 46bd
000000b0: e061 5ebc 644f 8d3c 9c86 cb3c 2811 983c
000000c0: 9a48 783d d289 1d3d 080b 37bc b8ee 58bd
000000d0: e0e8 33bd f428 1b3d d052 b83b c495 44bd
000000e0: d4b4 b63c 50e9 e3bb ca00 073d 9415 d4bc
000000f0: c88f 303d a0af d2bc 3c3f 463d d040 f73b
00000100: 6a29 763d f8ab 0e3d f892 893c 5e58 333d
00000110: 9456 b33c c892 933c 605a 043b 88c3 6dbd
00000120: 58d5 6c3d 72e5 3d3d fce5 dc3c 9045 23bd
00000130: 5024 7fbd 96ba 62bd 4e3e 50bd d4e9 57bd
00000140: 6018 ecbb f811 663d 3cc6 b23c 8033 1ebd
00000150: 40ad ac3c 480b af3c c8e2 763c ce24 613d
00000160: 9ae4 61bd 24cc 1cbd 9c76 ac3c b030 143d
00000170: d69e 66bd 946f 89bc 406b 203c d0fd 7cbc
00000180: 502b 3ebc a60c 583d 0025 2f3b b0d6 bebc
00000190: 6647 26bd b040 bf3c 3c5a 1abd f836 713d
000001a0: 6009 2cbc 3636 523d 3cc7 7c3d 42af 73bd
000001b0: d040 78bc 880c b2bc 5c5b 9c3c bc6c 153d
000001c0: de56 3f3d 4cb0 c5bc 8c2a 94bc d09f 31bc
000001d0: 0cdd a1bc a66f 203d aaca 41bd ac62 74bd
000001e0: c8d3 413c 3880 10bd 8017 fe3a a8b4 db3c
000001f0: b0b3 9cbc 6c2f 2a3d 1010 e3bc fcc5 533d
